benchmark/paper.pt (torch, 493801 bytes, 48 tensors)

weight f4 [18, 1]
165.48238 277.72952 69.2969 101.73154 98.906624 144.38199 159.2791 173.86488
240.10626 269.40466 65.572624 83.54831 74.01278 110.021805 129.531 143.40192
191.17181 170.18674
00000000: 7d7b 2543 61dd 8a43 0398 8a42 8c76 cb42
00000010: 31d0 c542 ca61 1043 7347 1f43 69dd 2d43
00000020: 341b 7043 ccb3 8643 2f25 8342 bc18 a742
00000030: 8b06 9442 2a0b dc42 f087 0143 e466 0f43
00000040: fc2b 3f43 ce2f 2a43

weight f4 [18, 1]
0.08 0.0 0.707 0.0 0.0 0.307 -0.46 -0.432
-0.234 0.0 0.0 0.0 0.0 0.0 1.507 0.939
0.0 0.0
00000000: 0ad7 a33d 0000 0000 f4fd 343f 0000 0000
00000010: 0000 0000 1b2f 9d3e 1f85 ebbe 1b2f ddbe
00000020: b29d 6fbe 0000 0000 0000 0000 0000 0000
00000030: 0000 0000 0000 0000 60e5 c03f 4e62 703f
00000040: 0000 0000 0000 0000

weight f4 [37, 1]
1.0 69.21997 21.47207 6246.0474 1864.6166 756.22626 440.65884 282.24213
176.22447 114.96473 86.66543 9662.66 5567.116 4497.9927 3231.7058 2404.9338
1794.7112 1258.9949 890.77057 25994.312 16820.766 8262.736 7770.956 6696.413
4592.9185 4392.7173 3265.3303 3022.0618 3101.719 3404.897 3242.5764 4389.132
3729.281 3381.4165 2930.2473 2317.3982 1796.8263
00000000: 0000 803f a070 8a42 cdc6 ab41 6130 c345
00000010: bb13 e944 7b0e 3d44 5554 dc43 fe1e 8d43
00000020: 7739 3043 f1ed e542 b354 ad42 a4fa 1646
00000030: eef8 ad45 f18f 8c45 4bfb 4945 f14e 1645
00000040: c256 e044 d65f 9d44 51b1 5e44 a014 cb46
00000050: 8869 8346 f21a 0146 a6d7 f245 4e43 d145
00000060: 5987 8f45 bd45 8945 4915 4c45 fde0 3c45
00000070: 81db 4145 5ace 5445 39a9 4a45 0e29 8945
00000080: 7f14 6945 aa56 5345 f523 3745 5fd6 1045
00000090: 719a e044

weight f4 [37, 1]
1.0 2.1823 1.7347 3.4956 3.0982 3.216 2.9103 2.6225
2.4817 2.2996 2.1374 3.7082 3.4839 4.0106 3.7917 3.5017
3.3107 3.1046 2.9148 4.2411 4.1035 3.8903 3.7642 3.7211
3.4414 3.5462 3.4421 3.4327 3.3462 3.3008 3.2309 3.9579
3.8619 3.6625 3.5268 3.3662 3.2096
00000000: 0000 803f ceaa 0b40 a60a de3f e9b7 5f40
00000010: e948 4640 f2d2 4d40 5b42 3a40 0ad7 2740
00000020: 2cd4 1e40 a52c 1340 29cb 0840 2653 6d40
00000030: 38f8 5e40 d656 8040 36ab 7240 da1b 6040
00000040: 82e2 5340 c4b1 4640 158c 3a40 17b7 8740
00000050: df4f 8340 adfa 7840 a7e8 7040 8126 6e40
00000060: e63f 5c40 f1f4 6240 5e4b 5c40 5bb1 5b40
00000070: 2428 5640 4f40 5340 11c7 4e40 3c4e 7d40
00000080: 5f29 7740 6666 6a40 17b7 6140 d26f 5740
00000090: 166a 4d40

weight f4 [87, 64]
-9.115e-42 -4.239e-42 1.1252e-41 3.733e-42 -1.2225e-41 4.239e-42 9.115e-42 -4.827e-42
9.115e-42 1.2225e-41 3.858e-42 -1.2225e-41 4.239e-42 3.733e-42 1.1252e-41 -3.733e-42
-3.733e-42 -1.1252e-41 1.0878e-41 3.733e-42 -1.2225e-41 1.2225e-41 4.239e-42 9.115e-42
-1.3084e-41 -9.115e-42 1.2225e-41 1.3084e-41 4.239e-42 1.2225e-41 4.239e-42 -3.858e-42
-1.1252e-41 -3.858e-42 4.239e-42 -1.312e-42 -4.239e-42 4.239e-42 -3.733e-42 -9.115e-42
4.239e-42 -1.1252e-41 -1.2225e-41 -1.0878e-41 9.115e-42 4.528e-42 3.733e-42 -1.2225e-41
-9.115e-42 -3.733e-42 -4.239e-42 1.2225e-41 1.2225e-41 1.2225e-41 9.115e-42 -1.2225e-41
1.3084e-41 -3.733e-42 -4.239e-42 -1.2225e-41 -4.827e-42 -1.2225e-41 1.2225e-41 -9.115e-42
1.4301716 -0.31611145 -2.135929 -0.9052139 -0.6115742 -0.50815415 -0.40382397 1.51586
-0.1354432 -0.36008036 0.1691643 -0.05020479 -0.5407191 0.989515 1.0100653 0.06620768
2.4313166 0.71419 -0.48798013 -0.36383942 -0.9721542 -1.5289657 0.021815658 1.3708676
-0.376783 0.012957964 -0.29389298 -0.13629709 -0.25349447 -0.094453715 -0.23484038 -0.37347737
-1.1285537 -0.6282523 -0.099097654 -0.55111307 0.48561573 -0.553165 0.5666438 1.6088715
-0.013845407 -1.1491627 0.46303043 0.21506865 0.585602 -1.6188357 1.9788667 -0.04630636
-0.023260253 0.31740722 0.96563905 0.15337388 -0.034919575 -0.17073144 -0.3161687 1.5631212
-1.114629 -1.2355177 -0.1986563 -0.77906364 -0.23420675 0.15226148 0.41472208 -1.8832555
3.733e-42 -1.2225e-41 1.3084e-41 -1.99e-43 9.115e-42 -4.239e-42 -1.2225e-41 9.115e-42
-3.733e-42 -4.827e-42 -9.115e-42 -3.733e-42 -3.858e-42 4.239e-42 -1.3084e-41 1.2225e-41
4.239e-42 1.1252e-41 1.2225e-41 -1.1252e-41 1.1252e-41 -1.2225e-41 3.733e-42 1.3084e-41
4.827e-42 -1.1252e-41 -3.733e-42 3.733e-42 9.115e-42 -1.1252e-41 4.239e-42 9.115e-42
1.2225e-41 -3.733e-42 3.733e-42 3.733e-42 9.115e-42 -1.2225e-41 3.733e-42 -9.115e-42
1.2225e-41 4.239e-42 -3.733e-42 1.2225e-41 4.827e-42 4.528e-42 3.733e-42 4.239e-42
-4.239e-42 -4.239e-42 -4.239e-42 1.2225e-41 -3.733e-42 9.115e-42 -1.1252e-41 -4.239e-42
-4.239e-42 1.312e-42 -3.733e-42 3.733e-42 1.2225e-41 3.733e-42 -9.115e-42 -1.2225e-41
-1.2380499 -0.397594 -0.61726975 0.07338103 -0.37427393 -0.015115062 0.3536385 0.33715487
0.22595859 0.21642236 0.14482631 0.76691204 0.3068103 0.06937438 -1.5220397 -1.5780145
0.60910964 -0.43592328 -0.5526757 0.63931054 -0.35491684 -0.87993383 -0.28864962 -0.08427954
0.2933869 1.2978307 -0.5727157 0.76959777 0.26130846 1.2374595 1.6968203 -0.61017174
0.124001876 0.65594786 -0.16750324 0.5949115 1.3105546 0.0015868866 0.08215999 -1.1809247
-0.8094508 0.6963031 -0.1973343 0.99763346 0.5699063 -0.17177235 -0.19372027 -0.43031484
0.83623946 0.96208614 -0.28937584 -0.037288316 0.8832175 -0.60093075 -0.03751975 -0.07485762
-1.2945538 -0.2395273 -0.48095998 -1.660462 0.16402273 0.68138474 -0.33035687 0.026888616
00000000: 6919 0080 d10b 0080 5e1f 0000 680a 0000
00000010: 1422 0080 d10b 0000 6919 0000 750d 0080
00000020: 6919 0000 1422 0000 c10a 0000 1422 0080
00000030: d10b 0000 680a 0000 5e1f 0000 680a 0080
00000040: 680a 0080 5e1f 0080 531e 0000 680a 0000
00000050: 1422 0080 1422 0000 d10b 0000 6919 0000
00000060: 7924 0080 6919 0080 1422 0000 7924 0000
00000070: d10b 0000 1422 0000 d10b 0000 c10a 0080
00000080: 5e1f 0080 c10a 0080 d10b 0000 a803 0080
00000090: d10b 0080 d10b 0000 680a 0080 6919 0080
000000a0: d10b 0000 5e1f 0080 1422 0080 531e 0080
000000b0: 6919 0000 9f0c 0000 680a 0000 1422 0080
000000c0: 6919 0080 680a 0080 d10b 0080 1422 0000
000000d0: 1422 0000 1422 0000 6919 0000 1422 0080
000000e0: 7924 0000 680a 0080 d10b 0080 1422 0080
000000f0: 750d 0080 1422 0080 1422 0000 6919 0080
00000100: dd0f b73f 5cd9 a1be 10b3 08c0 19bc 67bf
00000110: 2090 1cbf 6416 02bf 04c2 cebe b307 c23f
00000120: 9fb1 0abe 745c b8be 6839 2d3e 8aa3 4dbd
00000130: 916c 0abf db50 7d3f d249 813f e497 873d
00000140: b19a 1b40 28d5 363f 88d8 f9be 2949 babe
00000150: 19df 78bf 26b5 c3bf c0b6 b23c 9778 af3f
00000160: b4e9 c0be a44d 543c 2479 96be 7791 0bbe
00000170: 07ca 81be f370 c1bd ff79 70be 6d38 bfbe
00000180: 7374 90bf 25d5 20bf b6f3 cabd bf15 0dbf
00000190: a0a2 f83e 399c 0dbf 910f 113f 80ef cd3f
000001a0: d9d7 62bc c317 93bf 5312 ed3e f53a 5c3e
000001b0: 03ea 153f 0236 cfbf 814b fd3f bdab 3dbd
000001c0: 498c bebc 3383 a23e 1f34 773f 0b0e 1d3e
000001d0: d407 0fbd 39d4 2ebe dde0 a1be 5b14 c83f
000001e0: 2aac 8ebf 7225 9ebf 8f6c 4bbe b770 47bf
000001f0: e5d3 6fbe 6fea 1b3e 7456 d43e 840e f1bf
00000200: 680a 0000 1422 0080 7924 0000 8e00 0080
00000210: 6919 0000 d10b 0080 1422 0080 6919 0000
00000220: 680a 0080 750d 0080 6919 0080 680a 0080
00000230: c10a 0080 d10b 0000 7924 0080 1422 0000
00000240: d10b 0000 5e1f 0000 1422 0000 5e1f 0080
00000250: 5e1f 0000 1422 0080 680a 0000 7924 0000
00000260: 750d 0000 5e1f 0080 680a 0080 680a 0000
00000270: 6919 0000 5e1f 0080 d10b 0000 6919 0000
00000280: 1422 0000 680a 0080 680a 0000 680a 0000
00000290: 6919 0000 1422 0080 680a 0000 6919 0080
000002a0: 1422 0000 d10b 0000 680a 0080 1422 0000
000002b0: 750d 0000 9f0c 0000 680a 0000 d10b 0000
000002c0: d10b 0080 d10b 0080 d10b 0080 1422 0000
000002d0: 680a 0080 6919 0000 5e1f 0080 d10b 0080
000002e0: d10b 0080 a803 0000 680a 0080 680a 0000
000002f0: 1422 0000 680a 0000 6919 0080 1422 0080
00000300: 6b78 9ebf 7191 cbbe 6405 1ebf cb48 963d
00000310: d5a0 bfbe 2aa5 77bc 1b10 b53e 909f ac3e
00000320: b061 673e d39d 5d3e 594d 143e 5954 443f
00000330: 3d16 9d3e 2814 8e3d 32d2 c2bf 61fc c9bf
00000340: 9cee 1b3f 5631 dfbe 287c 0dbf dba9 233f
00000350: a9b7 b5be 5843 61bf e2c9 93be c09a acbd
00000360: cf36 963e 511f a63f 7f9d 12bf 5c04 453f
00000370: 39ca 853e 1365 9e3f 6831 d93f 3734 1cbf
00000380: b2f4 fd3d 33ec 273f f885 2bbe 1f4c 183f
00000390: 41c0 a73f 14ff cf3a 7f43 a83d 8a28 97bf
000003a0: 2b38 4fbf ec40 323f 0112 4abe e864 7f3f
000003b0: 61e5 113f 17e5 2fbe 9b5e 46be 3a52 dcbe
000003c0: ca13 563f 474b 763f 1229 94be a2bb 18bd
000003d0: 8b1a 623f 99d6 19bf 4fae 19bd f44e 99bd
000003e0: f0b3 a5bf a546 75be 6340 f6be 058a d4bf
000003f0: 93f5 273e 3b6f 2e3f 8924 a9be 8445 dc3c

means f4 [32]
-0.15092164 -0.12207421 0.13093106 0.012046396 0.11417105 0.13816927 0.18042554 0.30436072
0.22995846 0.22719675 0.4410646 0.56996965 0.7555358 0.6180512 0.6606639 0.69860363
0.8242129 0.8371987 0.65834546 0.71774775 0.69904023 0.5764768 0.8507777 0.5278627
0.64349467 0.24533375 0.34021568 0.894793 0.44522086 0.6146073 0.60615396 0.680878
00000000: 348b 1abe 0b02 fabd cb12 063e 3f5e 453c
00000010: 83d2 e93d 3f7c 0d3e 79c1 383e 2bd5 9b3e
00000020: 3b7a 6b3e 44a6 683e 38d3 e13e 88e9 113f
00000030: cb6a 413f 9a38 1e3f 4521 293f b0d7 323f
00000040: 9eff 523f a752 563f 5489 283f 51be 373f
00000050: 4df4 323f fc93 133f 91cc 593f 0322 073f
00000060: 11bc 243f c538 7b3e c030 ae3e 2711 653f
00000070: fdf3 e33e e756 1d3f e82c 1b3f 054e 2e3f

betas f4 [32]
45.603863 44.654167 44.684837 37.496597 28.920336 71.18886 131.3435 22.279293
43.8422 56.29763 55.47892 39.066525 14.83382 28.31286 16.015863 15.617424
9.937 11.757604 19.174007 13.463341 17.268856 37.716652 10.106417 49.03067
20.791857 104.149864 85.84665 7.7506227 59.999207 28.756714 30.791466 18.454473
00000000: 5b6a 3642 de9d 3242 46bd 3242 84fc 1542
00000010: d95c e741 b260 8e42 f057 0343 fe3b b241
00000020: 6a5e 2f42 c630 6142 6aea 5d42 1f44 1c42
00000030: 5457 6d41 bd80 e241 7d20 8041 f8e0 7941
00000040: f4fd 1e41 251f 3c41 5e64 9941 d869 5741
00000050: 9e26 8a41 dadd 1642 e2b3 2141 681f 4442
00000060: b955 a641 bb4c d042 7cb1 ab42 1a05 f840
00000070: 30ff 6f42 c00d e641 ec54 f641 c3a2 9341

weight f4 [32, 64]
-0.064930215 -0.18801883 -0.058902565 -0.0057910644 0.0614386 -0.09315424 -0.08662523 -0.07600386
-0.23352554 -0.06585685 -0.15597846 0.16536315 -0.1536071 -0.020380324 -0.056104433 0.00018891238
-0.18639542 -0.01524009 0.031896047 -0.050915588 -0.05924337 0.009445892 0.05348524 -0.055197928
-0.048533615 -0.08184147 0.09965307 -0.06829554 0.044180073 -0.19381511 -0.10645513 -0.2024304
-0.23915598 -0.096840076 0.13291244 0.014586806 -0.04318128 -0.020078246 -0.05409488 -0.1755343
0.033629842 0.11968156 -0.12506065 -0.15803818 -0.22677302 0.06039616 -0.15111859 -0.022762839
-0.03622317 0.051271576 0.09235754 -0.026942393 0.2946598 -0.016015854 0.0151077695 -0.024869392
-0.0011513564 0.110526636 -0.022068258 0.089675345 0.11260896 -0.082307585 -0.004372094 -0.15178365
-0.6389111 0.07532699 0.13609788 0.014737614 -0.46559507 -0.09387408 0.27628127 0.058067635
-0.11731697 -0.033136282 -0.2928335 -0.46375912 0.10773846 0.009091273 0.22966067 -0.010677868
-0.024890913 -0.26053777 0.058947295 0.06820016 0.035502274 -0.118016385 0.040089104 -0.12467499
0.004293877 -0.4718214 0.12857047 0.014972932 0.35086444 0.46920735 -0.11232448 -0.5796396
0.30150822 0.20228778 0.1622361 -0.27243596 -0.33257684 -0.1108888 0.22405232 -0.0832776
-0.16685328 -0.08027908 0.141291 -0.06302017 -0.26172188 -0.15388195 0.13699315 0.87056535
0.04260902 0.022612354 -0.49354008 0.08960726 -0.27480793 -0.3479334 -0.20987423 0.28409
-0.04626907 -0.044471253 0.19964468 0.16391686 -0.04522321 0.023277814 0.32115364 -0.23847003
0.037934843 -0.20125572 -0.058050063 -0.05116762 0.07713289 0.07812708 -0.031274095 0.13107546
-0.056811288 0.0479631 -0.2655212 0.06736046 0.009729667 0.050468408 0.109411456 0.13135958
0.09889986 -0.0010988021 0.027359992 0.067275316 -0.06630296 -0.19469646 0.09566339 0.043605935
-0.03212155 -0.05572322 0.08781922 0.1626137 -0.08436687 -0.07797129 0.014359586 -0.03215782
-0.20492691 -0.049401905 0.10203856 0.074786976 -0.019920459 0.007827062 -0.06688945 -0.07025903
0.012736978 -0.08409845 -0.04289341 0.3040792 -0.10953489 -0.16986427 -0.053579397 0.032472987
-0.05537424 -0.015102984 0.12202397 -0.040316157 0.018545384 0.07420889 0.00294366 0.00025619988
-0.09679483 -0.18240209 0.07032141 0.02302258 0.09902766 0.05536243 -0.111833625 0.05662672
-0.30152512 0.15240303 0.04921827 -0.19351178 -0.09103899 -0.19889478 0.095323786 0.25121915
-0.04788798 0.08223133 0.17111157 -0.014439957 0.216676 -0.078429595 0.06946398 0.0020386027
0.10176378 0.039415818 -0.15190127 0.09971054 -0.08669827 -0.16730012 0.057452556 -0.030218618
0.00082046003 0.7571701 0.1079818 0.31338865 0.54440755 -0.18709962 0.18489623 -0.053475935
-0.14491902 0.099904805 -0.09208551 -0.4091007 0.118115306 0.30790386 -0.015499118 -0.17604877
0.061120994 0.0019356403 -0.09281072 -0.2468538 -0.17499144 -0.044436745 0.14521603 0.27749333
-0.32043937 -0.19811602 0.0023787227 -0.04352647 -0.16150816 0.19722335 -0.3666579 -0.1467337
-0.05625825 -0.024913007 -0.25103208 -0.048107933 -0.21164478 -0.08316751 -0.0921053 0.14211382
00000000: 22fa 84bd 0288 40be d143 71bd f8c2 bdbb
00000010: 0ba7 7b3d a6c7 bebd 9268 b1bd e9a7 9bbd
00000020: 5221 6fbe f5df 86bd d1b8 1fbe f554 293e
00000030: 2e4b 1dbe a3f4 a6bc c3cd 65bd c816 4639
00000040: 71de 3ebe 92b1 79bc 6ea5 023d dd8c 50bd
00000050: 2da9 72bd f1c2 1a3c 5713 5b3d 3917 62bd
00000060: 2fcb 46bd 809c a7bd e916 cc3d 88de 8bbd
00000070: 2af6 343d 7877 46be 2605 dabd ea49 4fbe
00000080: 4ee5 74be 1754 c6bd 331a 083e 80fd 6e3c
00000090: dbde 30bd 227b a4bc 9892 5dbd 43bf 33be
000000a0: 72bf 093d 9b1b f53d e60f 00be c3d4 21be
000000b0: 3037 68be f761 773d d5be 1abe 2279 babc
000000c0: bf5e 14bd 2502 523d f325 bd3d 4bb6 dcbc
000000d0: a6dd 963e ae33 83bc 9486 773c e5ba cbbc
000000e0: 1ce9 96ba ca5b e23d 7ec8 b4bc b5a7 b73d
000000f0: 879f e63d e190 a8bd c843 8fbb 2c6d 1bbe
00000100: ae8f 23bf 0945 9a3d 3e5d 0b3e 0976 713c
00000110: 7a62 eebe 0e41 c0bd bd74 8d3e 54d8 6d3d
00000120: e143 f0bd e9b9 07bd 46ee 95be d671 edbe
00000130: fba5 dc3d 90f3 143c 2b2c 6b3e 39f2 2ebc
00000140: 07e8 cbbc 3565 85be b872 713d 87ac 8b3d
00000150: d56a 113d 93b2 f1bd 7934 243d 9a55 ffbd
00000160: a7b3 8c3b 9392 f1be faa7 033e 0751 753c
00000170: 81a4 b33e f23b f03e 610a e6bd 4363 14bf
00000180: 495f 9a3e 8724 4f3e 3821 263e ba7c 8bbe
00000190: 8347 aabe ab19 e3bd f96d 653e 728d aabd
000001a0: 96db 2abe 5c69 a4bd 97ae 103e b810 81bd
000001b0: 6900 86be 3b93 1dbe ef47 0c3e 5fdd 5e3f
000001c0: cc86 2e3d 8b3d b93c 49b1 fcbe 0384 b73d
000001d0: a0b3 8cbe 5424 b2be 45e9 56be 3f74 913e
000001e0: a384 3dbd 7d27 36bd a86f 4c3e d2d9 273e
000001f0: f93b 39bd 1db1 be3c 406e a43e 7d31 74be
00000200: 9161 1b3d fb15 4ebe e7c5 6dbd 2395 51bd
00000210: d9f7 9d3d 1701 a03d 4419 00bd a538 063e
00000220: f4b2 68bd f574 443d 65f2 87be 48f4 893d
00000230: 2e69 1f3c f6b7 4e3d 1d13 e03d 2083 063e
00000240: 038c ca3d ae05 90ba 1022 e03c a4c7 893d
00000250: d9c9 87bd 825e 47be 2beb c33d 239c 323d
00000260: e391 03bd 083e 64bd 90da b33d 3584 263e
00000270: 8ac8 acbd 69af 9fbd 7844 6b3c ebb7 03bd
00000280: 5cd8 51be a759 4abd 98f9 d03d ea29 993d
00000290: 3b30 a3bc 143d 003c 56fd 88bd f7e3 8fbd
000002a0: c2ae 503c cf3b acbd 00b1 2fbd 45b0 9b3e
000002b0: d453 e0bd e6f0 2dbe 1276 5bbd 6502 053d
000002c0: 19d0 62bd 8272 77bc b4e7 f93d 8e22 25bd
000002d0: 7dec 973c d5fa 973d 6bea 403b 9152 8639
000002e0: 5e3c c6bd 9dc7 3abe ac04 903d da99 bc3c
000002f0: 04cf ca3d b7c3 623d 0709 e5bd 6bf1 673d
00000300: 8061 9abe 8a0f 1c3e 1999 493d f427 46be
00000310: a672 babd 13ab 4bbe 1e39 c33d cc9f 803e
00000320: 3026 44bd e668 a83d df37 2f3e 9295 6cbc
00000330: 50e0 5d3e b29f a0bd 2243 8e3d 149a 053b
00000340: 8769 d03d 7b72 213d 028c 1bbe 0a35 cc3d
00000350: dd8e b1bd b950 2bbe 5f53 6b3d 098d f7bc
00000360: 2414 573a e6d5 413f 9025 dd3d 7a74 a03e
00000370: 4b5e 0b3f 0b97 3fbe 7055 3d3e 9509 5bbd
00000380: a765 14be e49a cc3d 5497 bcbd a675 d1be
00000390: 70e6 f13d 93a5 9d3e 03f0 7dbc 2146 34be
000003a0: 025a 7a3d 50b5 fd3a 8c13 bebd 3ec7 7cbe
000003b0: f530 33be 4e03 36bd 83b3 143e 9b13 8e3e
000003c0: a110 a4be edde 4abe 58e4 1b3b d048 32bd
000003d0: 6562 25be ebf4 493e 96ba bbbe 5c41 16be
000003e0: 0d6f 66bd 5d16 ccbc 4787 80be d30c 45bd
000003f0: 69b9 58be ba53 aabd b4a1 bcbd 4986 113e

bias f4 [32]
0.2116992 0.13226447 0.05959854 -0.093569115 -0.38027087 -0.57511723 -0.06566267 0.070409834
0.08438108 0.64663 0.108642794 -0.36777246 -0.059300467 -0.15407142 -0.22102496 0.12950939
-0.0804257 -0.3276603 -0.11798506 0.033392098 -0.08157325 -0.040036146 0.16572067 -0.023264436
-0.29126954 -0.11297863 0.15153001 0.057386544 0.06411085 -0.14629036 0.29388276 0.026543064
00000000: adc7 583e 5670 073e 991d 743d 2aa1 bfbd
00000010: ddb2 c2be e23a 13bf 267a 86bd 0833 903d
00000020: fdcf ac3d 8b89 253f 1d80 de3d ac4c bcbe
00000030: 0ce5 72bd e6c4 1dbe 5e54 62be 1c9e 043e
00000040: 3bb6 a4bd 17c3 a7be 27a2 f1bd 27c6 083d
00000050: e00f a7bd f1fc 23bd aeb2 293e 0f95 bebc
00000060: 4821 95be 5761 e7bd af2a 1b3e 270e 6b3d
00000070: 8d4c 833d 24cd 15be cd77 963e d770 d93c

weight f4 [32, 32]
-0.072677426 0.039717913 -0.08895122 -0.38583693 -0.0004506434 -0.41423768 -0.07095314 -0.18594675
-0.09576724 -0.16495943 -0.017541252 -0.060966875 0.15766057 0.5219648 -0.27295434 -0.36416313
-0.27817908 0.06813997 -0.4814689 0.045768492 -0.2513014 -0.19673915 -0.25598928 -0.12273777
-0.20143719 -0.23846999 -0.1197924 0.41483563 -0.099029005 0.32093728 -0.007932861 0.036063805
-0.5561858 -0.057795376 -0.06447803 0.1348806 -0.05605287 0.08795047 0.077762105 -0.6766884
-0.19885555 -0.21750572 0.011660984 -0.17421757 0.15981862 0.20778015 -0.2856542 0.03447947
-0.39773816 -0.07403494 -0.18314826 0.2687171 0.20521405 -0.1851134 0.081775494 -0.1947214
-0.67348444 0.030045891 -0.1554309 -0.39522904 0.148658 -0.0757171 0.04846252 -0.051681653
-0.121668056 0.254384 -0.11456428 -0.32938716 -0.18240258 -0.31782493 0.07537402 0.36651728
-0.35300082 0.01977256 0.25010046 -0.029602682 -0.18277921 -0.04141351 -0.6364373 -0.13610728
-0.18550207 0.20687139 -0.07416253 -0.094592676 -0.535593 -0.005479724 -0.45930824 -0.19561721
0.04239482 0.11213844 0.03527517 -0.3037894 -0.21992046 0.39981827 0.034709845 0.12074346
-0.026521703 0.12243814 -0.41530615 0.11680879 -0.0698411 0.0634384 -0.38249537 0.07502351
0.10337694 0.035943117 -0.50850576 0.0010455023 -0.5278788 0.049158663 -0.21548164 -0.22282752
0.04887535 -0.42394713 -0.27058205 -0.13054965 -0.16907749 -0.13948344 -0.42950067 -0.112899825
-0.28113675 0.32776508 0.20170103 0.15046269 -0.2575689 -0.22328056 -0.08077393 -0.15626618
-0.16864562 0.09617363 0.08609907 -0.07300762 -0.0882429 0.005647616 0.02671977 0.28567004
-0.23982336 0.018834192 0.5193529 0.050798584 0.3944171 0.19608182 -0.05128482 -0.12691668
-0.4395255 -0.026598878 0.17321748 -0.5661199 0.0066888663 -0.008195093 -0.29876226 -0.24811536
-0.07003959 -0.33748445 -0.21776281 0.20560974 -0.10450943 0.1659503 -0.086758465 -0.13639271
-0.20947932 -0.0123542035 -0.084726684 0.028837299 0.10513511 -0.79960036 -0.06008609 0.2750359
0.039262995 -0.21644317 -0.061468933 0.012755813 0.116623074 0.10705004 0.060538378 -0.22113866
-0.2277354 0.23153582 -0.08723903 -0.24925157 -0.03135925 0.13495429 0.25965774 -0.003410745
-0.017266009 0.04721666 0.13964304 0.19143628 0.010619673 -0.14114138 0.21122192 -0.31486315
0.11672612 -0.12156001 -0.28266415 -0.057208914 -0.5742415 0.075208716 -0.075665474 0.026966497
-0.02273495 0.065357134 -0.06630097 -0.02166528 0.03401207 -0.04470823 0.15951373 -0.10853293
0.07043061 0.13698082 0.20128062 -0.124455765 0.085710935 -0.33478862 0.013433639 0.0065234983
-0.035987593 0.027874164 -0.14409555 -0.20355111 0.10425392 0.10819954 -0.33256057 0.066288546
0.0035163837 -0.003940361 -0.004203919 0.0042272 -0.0024783157 0.013219164 0.018836346 0.0006631635
0.0021985243 -0.00048766716 0.004186156 -0.0017475531 0.0006180009 0.010388792 0.00028058197 0.004896257
-0.0061720097 0.0013088684 0.00977671 -0.0048364047 -8.255196e-05 0.015311676 -0.000725352 0.0014577839
-0.006077911 -0.001652721 0.0049423133 0.0069488096 -0.0015192317 -0.015541896 0.013490953 0.0009604451
00000000: e7d7 94bd 40af 223d 0f2c b6bd 6b8c c5be
00000010: 5544 ecb9 f616 d4be e14f 91bd d368 3ebe
00000020: 9d21 c4bd 20eb 28be acb2 8fbc 67b8 79bd
00000030: c671 213e 7c9f 053f acc0 8bbe 9773 babe
00000040: 7d6d 8ebe f88c 8b3d 1783 f6be be77 3b3d
00000050: 94aa 80be fd75 49be 0711 83be f15d fbbd
00000060: 8d45 4ebe 7a31 74be b855 f5bd 5665 d43e
00000070: b8cf cabd e451 a43e d5f8 01bc a4b7 133d
00000080: 3162 0ebf d8ba 6cbd 0f0d 84bd 241e 0a3e
00000090: b297 65bd 601f b43d bd41 9f3d 733b 2dbf
000000a0: caa0 4bbe d2b9 5ebe b60d 3f3c 1766 32be
000000b0: 7ea7 233e 52c4 543e 4441 92be 583a 0d3d
000000c0: 56a4 cbbe a19f 97bd 388b 3bbe 4a95 893e
000000d0: a223 523e 5e8e 3dbe e979 a73d 0c65 47be
000000e0: 7a69 2cbf cd22 f63c 4729 1fbe 765b cabe
000000f0: ce39 183e 9111 9bbd a380 463d 24b0 53bd
00000100: 1a2d f9bd 9f3e 823e ada0 eabd 6fa5 a8be
00000110: bec7 3abe f3b9 a2be b25d 9a3d 27a8 bb3e
00000120: 86bc b4be 10fa a13c 2b0d 803e 5381 f2bc
00000130: 792a 3bbe 36a1 29bd 8eed 22bf b55f 0bbe
00000140: 41f4 3dbe 18d6 533e 86e2 97bd ceb9 c1bd
00000150: 9f1c 09bf 428f b3bb 732a ebbe e14f 48be
00000160: 31a6 2d3d d7a8 e53d b27c 103d 498a 9bbe
00000170: d432 61be fbb4 cc3e e92b 0e3d 5948 f73d
00000180: 0b44 d9bc d9c0 fa3d 02a3 d4be 7239 ef3d
00000190: da08 8fbd feeb 813d 6fd6 c3be eda5 993d
000001a0: 4ab7 d33d 1739 133d 6f2d 02bf 3c09 893a
000001b0: 1123 07bf 985a 493d 38a7 5cbe e62c 64be
000001c0: 8531 483d 990f d9be bb89 8abe cfae 05be
000001d0: a622 2dbe bfd4 0ebe 83e7 dbbe 0638 e7bd
000001e0: 28f1 8fbe d3d0 a73e b78a 4e3e e412 1a3e
000001f0: 12e0 83be a9a3 64be cd6c a5bd 3e04 20be
00000200: 70b1 2cbe aef6 c43d b654 b03d 0585 95bd
00000210: b2b8 b4bd a30f b93b 6be3 da3c 5843 923e
00000220: 4194 75be 2a4a 9a3c 50f4 043f 2d12 503d
00000230: 0af1 c93e acc9 483e 0810 52bd 72f6 01be
00000240: 7d09 e1be e4e5 d9bc ec5f 313e 3ced 10bf
00000250: 472e db3b b644 06bc 5ef7 98be f411 7ebe
00000260: eb70 8fbd c3ca acbe 37fd 5ebe 5c8b 523e
00000270: 0a09 d6bd e0ee 293e 6cae b1bd 88aa 0bbe
00000280: bf81 56be 4969 4abc 2f85 adbd 333c ec3c
00000290: 1451 d73d 9cb2 4cbf d51c 76bd 81d1 8c3e
000002a0: 3cd2 203d 47a3 5dbe d9c6 7bbd c2fd 503c
000002b0: 14d8 ee3d 0d3d db3d 17f7 773d 2c72 62be
000002c0: 7833 69be ba17 6d3e 60aa b2bd ce3b 7fbe
000002d0: 8f72 00bd 7531 0a3e dcf1 843e ce86 5fbb
000002e0: 7271 8dbc 4266 413d 96fe 0e3e df07 443e
000002f0: 23fe 2d3c 5e87 10be 8f4a 583e be35 a1be
00000300: 1b0e ef3d 74f4 f8bd 5bb9 90be e553 6abd
00000310: 7e01 13bf 0707 9a3d 80f6 9abd d8e8 dc3c
00000320: a53e babc f6d9 853d cec8 87bd 637b b1bc
00000330: 3e50 0b3d fa1f 37bd 9157 233e 8346 debd
00000340: ec3d 903d b344 0c3e 821c 4e3e aae2 febd
00000350: 3789 af3d 6a69 abbe c418 5c3c 12c3 d53b
00000360: ba67 13bd 5c58 e43c c98d 13be b46f 50be
00000370: 1483 d53d b897 dd3d 6145 aabe 4ac2 873d
00000380: 2173 663b 251e 81bb 07c1 89bb 5384 8a3b
00000390: 3d6b 22bb 3195 583c ae4e 9a3c 26d8 2d3a
000003a0: 1e15 103b 94ad ffb9 062c 893b 270e e5ba
000003b0: 5701 223a c035 2a3c 131b 9339 c870 a03b
000003c0: 923e cabb 568e ab3a 7e2e 203c b47a 9ebb
000003d0: bf1f adb8 d3dd 7a3c 8c25 3eba 1c13 bf3a
000003e0: 3629 c7bb 1da0 d8ba 21f3 a13b d7b2 e33b
000003f0: f520 c7ba 70a3 7ebc 2809 5d3c 61c6 7b3a

bias f4 [32]
-0.046352368 -0.24253443 -0.33133256 0.01145948 -0.3521187 -0.6532709 0.16057335 0.00014590677
-0.047594722 -0.09160363 -0.25292468 -0.28936303 0.15685332 0.16989273 0.14604133 -0.3965286
-0.0772076 -0.09158288 1.0749421 0.16320786 -0.34053499 0.27508745 -0.4123862 0.0005136391
-0.1584416 -0.019621577 0.014740182 -0.17858894 -0.4452785 -0.06266876 -0.3932321 -0.20856895
00000000: fbdb 3dbd f25a 78be 6ca4 a9be 8bc0 3b3c
00000010: e748 b4be c33c 27bf 576d 243e 8dfe 1839
00000020: aff2 42bd af9a bbbd 587f 81be 6427 94be
00000030: 289e 203e 5cf8 2d3e dc8b 153e cc05 cbbe
00000040: 051f 9ebd ce8f bbbd b497 893f f61f 273e
00000050: 9a5a aebe 43d8 8c3e 4924 d3be bda5 063a
00000060: 843e 22be 6ebd a0bc ce80 713c 05e0 36be
00000070: 8bfb e3be 7b58 80bd b855 c9be 1993 55be

weight f4 [1, 32]
-0.12831032 0.065167375 -0.04734037 0.10806136 0.06831995 0.040920366 -0.10706084 -0.024066478
0.08526417 -0.029396832 0.067747004 0.1580418 -0.16353564 -0.24479543 -0.03148481 -0.04295426
-0.20674399 -0.029479548 0.1195493 -0.1856855 0.09538091 0.14827232 0.16738582 -0.02284412
-0.1329584 0.079736754 -0.20246147 0.07238802 0.18350148 -0.16868903 -0.07660763 0.09530673
00000000: c863 03be 7976 853d fae7 41bd 464f dd3d
00000010: 54eb 8b3d 1d9c 273d b742 dbbd 1027 c5bc
00000020: fb9e ae3d a0d1 f0bc f1be 8a3d b6d5 213e
00000030: e375 27be a7ab 7abe 37f6 00bd cef0 2fbd
00000040: b2b4 53be 187f f1bc 43d6 f43d 5724 3ebe
00000050: 1157 c33d b3d4 173e 3067 2b3e 9823 bbbc
00000060: 3f26 08be 064d a33d 0f52 4fbe 2c40 943d
00000070: d0e7 3b3e d1bc 2cbe 76e4 9cbd 2d30 c33d

weight f4 [32, 64]
0.051194433 0.237206 0.23728085 -0.2886548 -0.15947127 -0.10045108 0.0057225768 -0.6609084
0.47432345 -0.37384644 0.2575118 0.091973156 -0.41290322 0.0006356315 0.7355925 -0.20629011
-0.039013702 -0.4803534 0.06979027 0.48654875 -0.011958056 0.4482232 -0.0974213 0.21497758
0.2221346 0.64243907 -0.04583924 0.5638144 0.0872909 -0.33293456 -0.16182068 -0.10135947
0.36695132 -0.04119455 0.11015256 -0.024994811 -0.07023653 -0.8861694 0.018995522 -0.14001279
-0.06500678 0.012728355 0.07949284 0.0609494 -0.08908673 0.5665263 -0.43528402 -0.009581986
0.06052833 -0.40191904 -0.17696469 0.08376032 0.17701972 0.34551015 -0.05820585 0.4696652
-0.19410524 0.71696043 -0.12372465 0.01483175 -0.06489718 -0.18378434 0.05347469 0.22615615
-0.036049955 0.11392243 -0.009173022 0.43472996 0.11653835 -0.38671288 -0.11266465 0.14605129
0.32769728 0.51106685 -0.22048555 0.25280264 -0.034535144 0.22245298 -0.371093 -0.23521471
0.031138295 0.3915973 0.32060742 -0.6012968 -0.19594467 0.31644708 0.16092503 -0.036633328
0.35724002 0.24398905 -0.37042886 -0.090338744 0.10312882 0.19323021 -0.05946847 -0.3009971
-0.024526542 -0.030250369 -0.0059347358 0.119713895 0.07745287 0.045021016 -0.08609713 0.036456294
-0.15457706 0.031069767 -0.024450302 -0.35194072 -0.4861368 0.47055918 -0.29316103 0.010512081
0.30317 0.12426194 -0.1987874 0.032074135 0.33438072 0.09374507 -0.40647426 0.27691552
0.20267381 0.18198563 -0.51879954 0.13886715 0.2132749 -0.20319188 -0.08941815 -0.12792447
0.13648711 -0.025980521 -0.15319481 -0.24701953 -0.2429315 0.000112046255 -0.3746304 0.1485342
-0.18521158 -0.40516606 0.22229652 0.1752429 -0.21205999 0.13432802 -0.093135215 0.15305015
0.2593943 0.19687271 0.017512435 -0.23103505 -0.17901024 0.14956313 -0.25157693 0.15744877
-0.020751841 0.076368615 -0.045566555 -0.29304868 0.028087074 0.0015324523 0.008763352 -0.09959738
-0.13388886 -0.15182166 -0.25378218 -0.3189037 0.2764503 0.24515872 -0.019927256 0.005836527
0.116825834 -0.20875032 0.072476104 -0.21960062 0.040791173 -0.2674287 -0.064618565 -0.010910813
0.27056766 0.24545288 0.33780226 0.2084213 -0.2173198 0.07675475 0.14631368 0.25945058
-0.1506077 0.13435896 0.0896542 -0.37388453 0.0024613435 0.28632298 -0.22314303 0.16187751
-0.05322175 0.56734 -0.08132223 0.1330389 -0.038469996 0.2214779 -0.45309037 -0.37493327
-0.1404012 -0.24690847 -0.12359442 0.021754162 0.18711245 0.38594323 -0.004313786 -0.1324855
-0.111494966 -0.7097248 -0.28502274 -0.071946345 0.08262515 0.6392064 -0.02769988 -0.022578264
0.5792704 -0.44153252 -0.19948864 0.1953111 -0.106339954 0.030533576 -0.11498876 -0.08023376
0.31711915 0.42803153 0.12799634 -0.33898354 0.05295533 0.3178997 0.14928126 -0.19780393
0.06918998 0.2647452 -0.030139139 -0.102831066 0.07120292 0.07607978 -0.6755152 -0.06749136
0.0007412254 -0.27993378 -0.20487024 -0.30103818 -0.09263067 0.045617066 -0.015743598 0.22071661
-0.30525774 0.1643152 0.025629755 -0.013921089 0.109873064 -0.73767984 -0.40992567 0.46882692
00000000: 41b1 513d 21e6 723e c0f9 723e 90ca 93be
00000010: 704c 23be 4cb9 cdbd 7484 bb3b 4b31 29bf
00000020: 86da f23e cd68 bfbe 96d8 833e 6c5c bc3d
00000030: 0d68 d3be 82a0 263a ca4f 3c3f b73d 53be
00000040: d5cc 1fbd e1f0 f5be 33ee 8e3d eb1c f93e
00000050: b9eb 43bc 837d e53e d284 c7bd 1523 5c3e
00000060: 4177 633e e376 243f edc1 3bbd 2456 103f
00000070: 92c5 b23d 6676 aabe 52b4 25be 8e95 cfbd
00000080: 0be1 bb3e 9ebb 28bd aa97 e13d ebc1 ccbc
00000090: 2bd8 8fbd ffdb 62bf 7f9c 9b3c 835f 0fbe
000000a0: 4622 85bd 978a 503c 24cd a23d 14a6 793d
000000b0: 1a73 b6bd de07 113f 8cdd debe c3fd 1cbc
000000c0: 8eec 773d 55c8 cdbe 3b36 35be 888a ab3d
000000d0: a844 353e b5e6 b03e 4269 6ebd f577 f03e
000000e0: 86c3 46be b88a 373f 5963 fdbd de00 733c
000000f0: d0e8 84bd f631 3cbe 4708 5b3d 7a95 673e
00000100: 1ea9 13bd 2a50 e93d 714a 16bc ed94 de3e
00000110: a9ab ee3d 3bff c5be b9bc e6bd 788e 153e
00000120: f0c7 a73e 47d5 023f f7c6 61be 596f 813e
00000130: b974 0dbd b7ca 633e e7ff bdbe 20dc 70be
00000140: bd15 ff3c 717f c83e a826 a43e 96ee 19bf
00000150: b8a5 48be 5a05 a23e 88c9 243e d40c 16bd
00000160: 2ae8 b63e 44d8 793e daa8 bdbe 8503 b9bd
00000170: 3435 d33d 24de 453e 3695 73bd 4b1c 9abe
00000180: e3eb c8bc 9fcf f7bc 2c78 c2bb 8f2c f53d
00000190: 9c9f 9e3d f567 383d b153 b0bd 3253 153d
000001a0: 7349 1ebe 0686 fe3c 004c c8bc 9331 b4be
000001b0: ece6 f8be 22ed f03e 3419 96be dd3a 2c3c
000001c0: 1939 9b3e 0b7d fe3d ed8e 4bbe 2b60 033d
000001d0: f333 ab3e 6afd bf3d 651d d0be dfc7 8d3e
000001e0: b989 4f3e 715a 3a3e 0cd0 04bf 3133 0e3e
000001f0: bc64 5a3e 8811 50be dd20 b7bd a2fe 02be
00000200: 47c3 0b3e 1ad5 d4bc 1adf 1cbe b0f2 7cbe
00000210: 09c3 78be 60fa ea38 8ecf bfbe 5919 183e
00000220: 1ba8 3dbe ed71 cfbe b3a1 633e e072 333e
00000230: 4126 59be 498d 093e adbd bebd 2eb9 1c3e
00000240: 54cf 843e 0099 493e 3d76 8f3c 7494 6cbe
00000250: 764e 37be 1427 193e b1ce 80be 403a 213e
00000260: c4ff a9bc 2667 9c3d ffa3 3abd 7a0a 96be
00000270: dd16 e63c 91dc c83a 2a94 0f3c b6f9 cbbd
00000280: 291a 09be 2377 1bbe bdef 81be 5947 a3be
00000290: e58a 8d3e e30a 7b3e 7c3e a3bc 5640 bf3b
000002a0: 6242 ef3d a5c2 55be 5a6e 943d fcde 60be
000002b0: a514 273d 6aec 88be bd56 84bd 44c3 32bc
000002c0: d887 8a3e 0058 7b3e 6bf4 ac3e 656c 553e
000002d0: 1589 5ebe 9831 9d3d 41d3 153e b5d6 843e
000002e0: e838 1abe 6595 093e 9f9c b73d cb6d bfbe
000002f0: 7e4e 213b ed98 923e 9b7f 64be 38c3 253e
00000300: 0dff 59bd 323d 113f 458c a6bd 593b 083e
00000310: b792 1dbd 1acb 623e 76fb e7be 41f7 bfbe
00000320: 55c5 0fbe 93d5 7cbe 121f fdbd c935 b23c
00000330: 689a 3f3e 5a9a c53e a95a 8dbb 47aa 07be
00000340: 7957 e4bd 86b0 35bf 80ee 91be 9b58 93bd
00000350: 6037 a93d 08a3 233f dcea e2bc 0df6 b8bc
00000360: 114b 143f 8d10 e2be c046 4cbe a2ff 473e
00000370: c3c8 d9bd 8d21 fa3c 3a7f ebbd 9951 a4bd
00000380: 715d a23e f326 db3e 7911 033e 408f adbe
00000390: b0e7 583d c0c3 a23e 30dd 183e 1d8d 4abe
000003a0: 7ab3 8d3d af8c 873e 5be6 f6bc 1899 d2bd
000003b0: d6d2 913d b7cf 9b3d 90ee 2cbf e938 8abd
000003c0: cb4e 423a 7b53 8fbe 81c9 51be ad21 9abe
000003d0: 26b5 bdbd f6d8 3a3d b8f8 80bc 8903 623e
000003e0: be4a 9cbe 3e42 283e 7ef5 d13c 4715 64bc
000003f0: 2105 e13d 96d8 3cbf c7e1 d1be 150a f03e

bias f4 [32]
0.048130568 0.3194239 0.19979717 -0.34414962 0.17694753 -0.067683846 0.28843912 0.011523876
0.056686092 0.18970491 0.29840133 0.2608466 0.35018793 0.31005868 -0.17177425 0.32299083
-0.20334025 0.29931888 0.1353454 0.31735992 0.2944312 0.28382197 0.30753067 0.08920061
0.26633656 0.110266425 0.17561725 0.3086197 0.28069723 0.30109814 -0.09179648 0.38094807
00000000: 8f24 453d 888b a33e a197 4c3e 6134 b0be
00000010: bc31 353e d49d 8abd 4bae 933e a4ce 3c3c
00000020: ad2f 683d 0142 423e 0fc8 983e b08d 853e
00000030: d54b b33e 03c0 9e3e 97e5 2fbe 0e5f a53e
00000040: 6d38 50be 5340 993e fc97 0a3e 007d a23e
00000050: b0bf 963e 1d51 913e a974 9d3e cfae b63d
00000060: 445d 883e 5dd3 e13d 02d5 333e 6703 9e3e
00000070: 8cb7 8f3e 8929 9a3e cbff bbbd a00b c33e

weight f4 [32, 32]
-0.26016754 0.23264171 0.26535156 -0.39480084 0.6588253 -0.11626553 0.4252228 -0.47190896
-0.3662905 -0.4444651 0.28858805 0.19566907 0.26235536 -0.044605862 -0.41851097 0.51605844
-0.38129783 0.36934716 -0.14216612 -0.055885848 0.11825752 0.07748217 0.18594374 0.16080934
0.07450663 0.15767811 0.29194826 0.4078412 0.14917551 0.26419768 -0.4966485 0.54030234
0.96510404 0.5528907 0.01895355 -0.08636561 0.2783612 -0.5449931 0.22641768 0.48930034
0.078079596 0.29458433 0.52063364 0.10662707 -0.36945182 0.21287417 1.4173471 -0.46099135
-0.046796914 -0.13609406 0.16674508 0.19926493 0.7573277 0.021701552 0.15897465 0.14429305
-0.005640635 0.17525613 -0.3891788 0.29132515 -0.23213577 -0.88494915 1.319557 -0.007465795
-0.6699243 0.12343203 0.21986678 -0.16950189 -0.32426706 -0.043602727 0.20272802 -0.36860168
-0.3310754 -0.4125013 -0.04861595 0.18245186 0.19856963 0.4143643 -0.33957413 0.28342345
-0.27742976 0.108414575 0.23964062 -0.011604734 0.2630658 0.22088102 0.4466472 0.22666141
0.25387585 0.24119438 0.26519966 0.33812812 -0.15195145 -0.15616609 -0.1353024 -0.08267478
-0.4277668 0.46299863 0.29330894 -0.5581653 0.78917277 -0.18584184 0.42777798 -0.32588607
-0.25089043 -0.20706382 0.45933056 0.32528016 0.4416533 0.22113816 -0.3297639 0.0068972264
-0.35136488 0.06906392 0.008202237 0.22821441 0.33253515 0.27654895 0.37978244 0.35698035
0.073738255 0.1550973 0.25066242 0.30262515 0.3115214 0.10777489 -0.51927954 0.5639157
0.851464 -0.08303023 0.17259867 0.18813595 -0.17225789 0.24194816 -0.01978078 0.18531698
-0.5511242 0.48018193 -0.032535553 0.31492192 0.042569645 0.060013726 -0.02368046 -0.6057784
-0.054364678 -0.5434622 0.37050703 -0.07241488 -0.14743647 -0.2512536 0.031220341 0.35386512
0.10018318 0.21866593 -0.25417542 0.42976952 0.08618622 0.016903471 0.9772069 0.10356336
-0.20495859 0.18882509 -0.1707169 -0.24962781 0.5801502 -0.081330895 0.22523111 -0.27459034
-0.21538714 -0.21266367 0.3087178 0.23689376 0.18903439 -0.09595674 -0.15142438 0.4024844
-0.3704894 0.36332607 0.1983138 0.0038585742 0.28255764 0.3819791 0.32004628 0.16385072
0.11181976 0.11707708 -0.071642525 0.16480626 0.1440962 0.29555374 -0.27538508 0.035918377
-0.3943021 -0.24138357 0.15258092 -0.2756121 0.4857302 0.0042826375 0.4434925 -0.18132724
-0.5130065 -0.0065765628 0.46366 -0.07461503 0.34419477 0.2959379 -0.4021455 -0.090233035
-0.69285685 -0.098407455 -0.25824863 -0.102179706 0.34307703 0.28956243 -0.28325912 0.32776192
0.027347561 0.1045247 -0.10547647 0.2079797 -0.12190549 -0.19528736 -0.4277223 0.10158531
0.0039095245 -0.34248382 -0.14600651 -0.38807562 0.120145984 0.02913611 -0.08705675 0.11809546
-0.09280599 0.6739296 -0.15354091 0.27875912 0.069901735 0.08152201 0.11980749 -0.29531226
-0.43070516 -0.168307 0.047041807 0.20301302 -0.055033628 -0.21737055 -0.006631484 -0.24979097
0.23506042 -0.128836 -0.16831383 -0.025202714 0.1800254 -0.42775092 1.5411334 -0.108898014
00000000: ae34 85be a139 6e3e 29dc 873e 5623 cabe
00000010: c6a8 283f 9f1c eebd ceb6 d93e 0d9e f1be
00000020: 6e8a bbbe ee90 e3be d0c1 933e 795d 483e
00000030: 7153 863e a3b4 36bd 1247 d6be 681c 043f
00000040: 7839 c3be 121b bd3e ff93 11be 8fe8 64bd
00000050: 0031 f23d f9ae 9e3d 0968 3e3e 34ab 243e
00000060: ef96 983d 5f76 213e 3e7a 953e 90d0 d03e
00000070: 77c1 183e eb44 873e b648 febe 4151 0a3f
00000080: 0f11 773f 3f8a 0d3f 7a44 9b3c 74e0 b0bd
00000090: 5c85 8e3e ab84 0bbf 09da 673e 9385 fa3e
000000a0: 32e8 9f3d c2d3 963e 3f48 053f 4b5f da3d
000000b0: ca28 bdbe b0fb 593e a16b b53f 0f07 ecbe
000000c0: 1fae 3fbd 3e5c 0bbe 39bf 2a3e 1b0c 4c3e
000000d0: 3ae0 413f 74c7 b13c 40ca 223e 8fc1 133e
000000e0: 13d5 b8bb 5876 333e 7242 c7be 9228 953e
000000f0: 00b5 6dbe 078c 62bf 3ee7 a83f a1a3 f4bb
00000100: 2980 2bbf efc9 fc3d c224 613e e791 2dbe
00000110: 5506 a6be c698 32bd ef97 4f3e 5cb9 bcbe
00000120: b782 a9be 5f33 d3be 8521 47bd a9d4 3a3e
00000130: d655 4b3e 8f27 d43e a9dc adbe e11c 913e
00000140: 460b 8ebe 7608 de3d 5a64 753e c821 3ebc
00000150: 8fb0 863e a22e 623e f1ae e43e ee19 683e
00000160: 04fc 813e a9fb 763e 40c8 873e 211f ad3e
00000170: 2999 1bbe 01ea 1fbe b68c 0abe 6551 a9bd
00000180: 4004 dbbe 280e ed3e 972c 963e ece3 0ebf
00000190: 3a07 4a3f 534d 3ebe b705 db3e 8ada a6be
000001a0: b674 80be 8a08 54be 602d eb3e 1f8b a63e
000001b0: 6220 e23e 0b72 623e d0d6 a8be 2102 e23b
000001c0: 19e6 b3be 6271 8d3d ad62 063c 0ab1 693e
000001d0: 0c42 aa3e d397 8d3e d872 c23e 21c6 b63e
000001e0: 1504 973d d4d1 1e3e d356 803e aff1 9a3e
000001f0: bc7f 9f3e 15b9 dc3d 81ef 04bf c85c 103f
00000200: 8bf9 593f c10b aabd b5bd 303e b6a6 403e
00000210: 5f64 30be 42c1 773e 4d0b a2bc bcc3 3d3e
00000220: 7a16 0dbf 68da f53e 0044 05bd 723d a13e
00000230: 825d 2e3d f4d0 753d 86fd c1bc 4b14 1bbf
00000240: 7fad 5ebd 5720 0bbf 19b3 bd3e 414e 94bd
00000250: 96f9 16be 50a4 80be cdc1 ff3c cf2d b53e
00000260: d72c cd3d f6e9 5f3e 4823 82be c00a dc3e
00000270: 6782 b03d 2679 8a3c 3b2a 7a3f 0719 d43d
00000280: aae0 51be 5d5b 413e 69d0 2ebe 6f9e 7fbe
00000290: b984 143f d090 a6bd fca2 663e 1b97 8cbe
000002a0: 728e 5cbe 81c4 59be 4210 9e3e 4794 723e
000002b0: 3b92 413e f884 c4bd fe0e 1bbe 6f12 ce3e
000002c0: c9b0 bdbe e005 ba3e c612 4b3e 22e0 7c3b
000002d0: 65ab 903e c492 c33e 1bdd a33e 7cc8 273e
000002e0: c201 e53d 1cc6 ef3d 51b9 92bd f9c2 283e
000002f0: f48d 133e d252 973e 46ff 8cbe 261f 133d
00000300: f7e1 c9be 412d 77be 2c3e 1c3e 071d 8dbe
00000310: a1b1 f83e 5e55 8c3b 7311 e33e d9ad 39be
00000320: 6554 03bf 3580 d7bb d864 ed3e c4cf 98bd
00000330: 4c3a b03e 2c85 973e 04e6 cdbe 19cc b8bd
00000340: 115f 31bf d989 c9bd 2a39 84be 9843 d1bd
00000350: cba7 af3e 8741 943e 5707 91be 69d0 a73e
00000360: fe07 e03c 0c11 d63d 0c04 d8bd a1f8 543e
00000370: 96a9 f9bd 69f9 47be 6bfe dabe f60b d03d
00000380: 781b 803b 0a5a afbe bb82 15be d9b1 c6be
00000390: 190f f63d daae ee3c cf4a b2bd 08dc f13d
000003a0: 1111 bebd a686 2c3f d439 1dbe 84b9 8e3e
000003b0: a428 8f3d 03f5 a63d a15d f53d 2b33 97be
000003c0: 6385 dcbe ac58 2cbe e9ae 403d a5e2 4f3e
000003d0: f16a 61bd 6396 5ebe eb4c d9bb 34c9 7fbe
000003e0: aeb3 703e 96ed 03be 765a 2cbe ec75 cebc
000003f0: 9458 383e 2b02 dbbe dc43 c53f ec05 dfbd

bias f4 [32]
0.35235256 0.12143313 0.26192656 0.3640414 -0.1262133 0.32602832 0.26730418 -0.031786934
0.20602891 0.34692237 -0.0762612 0.25981545 -0.08969725 0.019926928 0.26945704 0.09411378
0.2023382 0.09078477 0.31266677 0.3266547 0.26947546 -0.08079302 0.38639167 0.21035002
0.36168292 0.14862166 0.10830746 0.38297898 0.0547357 0.21712598 0.21138248 -0.07457078
00000000: 8e67 b43e efb1 f83d 3d1b 863e a263 ba3e
00000010: 0f3e 01be 2fed a63e 18dc 883e 0433 02bd
00000020: 3ef9 523e cf9f b13e d52e 9cbd 8806 853e
00000030: 31b3 b7bd cc3d a33c 46f6 893e babe c03d
00000040: bf31 4f3e 5eed b93d dc15 a03e 493f a73e
00000050: b0f8 893e d076 a5bd 21d5 c53e ff65 573e
00000060: 812e b93e 4730 183e 4dd0 dd3d d215 c43e
00000070: 8b32 603d 4656 5e3e a674 583e 91b8 98bd

weight f4 [1, 32]
-0.3722606 2.109293 -0.2366438 -0.48281226 1.2163506 -0.29240918 -0.38255933 1.7369226
-0.27730915 -0.5281247 0.98437536 -0.17873098 0.86740685 0.9177916 -0.20216505 0.8769415
-0.20305419 0.9288072 -0.632248 -0.27349308 -0.18621537 1.2619236 -0.57298934 -0.12725441
-0.5538637 1.1061016 1.0038294 -0.44755027 1.0237253 -0.28820503 -0.18373705 1.2393414
00000000: f198 bebe a8fe 0640 c152 72be 2b33 f7be
00000010: 60b1 9b3f a8b6 95be d1de c3be 7b53 de3f
00000020: 77fb 8dbe 2e33 07bf 0600 7c3f 4105 37be
00000030: 600e 5e3f 64f4 6a3f 5b04 4fbe 3d7f 603f
00000040: 70ed 4fbe 4fc6 6d3f 01db 21bf 4907 8cbe
00000050: 3eaf 3ebe b686 a13f 6eaf 12bf fb4e 02be
00000060: 03ca 0dbf bd94 8d3f 7b7d 803f 4f25 e5be
00000070: 6e09 833f 9c8f 93be 9125 3cbe bda2 9e3f

weight f4 [32, 64]
-0.18527539 -0.28567174 -0.10457276 -0.20066103 0.027448175 0.21959016 0.024664428 -0.024410862
-0.22297448 -0.27209368 0.23667762 -0.13267882 0.09026294 -0.07917885 -0.30942452 -0.23122893
-0.30484655 0.090384685 -0.07473058 0.031705223 -0.03755658 0.0486809 -0.057401173 -0.07974857
0.31205237 0.066142514 -0.025086874 -0.06037836 0.23516317 0.24866728 -0.010546272 0.05663499
0.26061234 0.030228043 -0.11760896 0.116340354 0.16895935 -0.10808329 0.076753795 -0.29494327
-0.0076062665 -0.15163478 0.00693528 0.14577784 -0.10533012 0.099356785 -0.005257375 0.0020044998
-0.045630787 -0.2028529 -0.011924888 -0.10506994 -0.34548956 0.1626656 0.25821087 0.30517846
-0.20768256 -0.11594491 -0.015247937 -0.14742476 0.14840004 0.22052822 -0.29785615 0.024502326
0.24670033 -0.13288316 -0.40774536 -0.080970146 0.2526895 -0.17026295 0.055362854 0.13187116
-0.11565737 -0.008082979 -0.1133129 -0.03505924 0.0568548 0.27181333 0.32544234 -0.061921947
0.37038118 0.16013107 -0.14289749 -0.16110711 -0.051379837 0.10492997 -0.21177563 0.014516788
-0.040464036 -0.15407379 -0.059905555 0.0679953 0.037930984 0.06864332 -0.09916259 0.058488443
0.11620025 -0.13136357 -0.06540065 0.014437179 0.16502935 0.040706776 0.09488322 0.11806833
-0.069280386 0.003795367 0.040153332 0.06292676 0.11234202 -0.01749023 0.037343606 -0.036455687
-0.14295 0.08934122 -0.1446835 0.037632868 -0.07484932 -0.08616141 0.05689039 0.20219615
0.15051746 -0.100331135 -0.0692447 0.09205022 -0.08387147 -0.10777641 0.16413501 -0.29778853
0.02145959 0.03037469 -0.0016346372 0.019933267 0.0008803488 -0.0067303246 -0.004256827 0.024353638
-0.004076719 -0.0200275 -0.011761268 -0.003142281 -0.007559069 -0.0034042215 0.063609175 0.053593624
0.016379714 0.0033405656 -0.010214848 0.010836864 -0.0049417857 -0.026713733 -0.04465327 -0.02626487
-0.045746032 -0.027097974 0.026549527 -0.012628707 -0.0206434 -0.021234628 -0.004320502 0.008419593
-0.0174025 -0.034655087 -0.036194835 -0.03439747 -0.02411325 0.053605117 -0.0116676185 0.01960457
0.002868228 -0.005915414 0.0242865 -0.022922141 0.008613777 0.01593815 -0.008823273 0.002479875
-0.0028427832 0.017231567 0.0040358067 -0.009621535 0.027325071 -0.014126416 -0.008316596 -0.032714207
0.044217274 -0.008576678 -0.0028185537 0.017776977 -0.058171455 -0.010446745 0.02421797 0.0065824296
-0.0017949622 -0.00047357255 0.0014820949 0.001906924 0.0030414513 0.00060143694 0.002742579 -0.005282852
-0.004264549 -0.0042789094 2.693256e-05 0.0034996485 0.002311247 -0.0014731319 0.0039022968 0.002800368
-0.0027080586 -0.0013915565 0.0017369938 -0.00024633794 -0.00028677622 0.0052515124 -0.0038211446 -0.003566577
-0.0018213693 -0.0051335692 0.0033947306 0.00353574 -0.00025140657 0.0025728995 -0.001363238 0.0033755566
0.0039077983 -0.0024545137 -0.0030746171 -0.0031756083 -0.0043769465 0.001430324 -0.0024261558 -0.0015255766
0.0007360281 0.0038661233 0.0027882836 -0.001977868 -0.0020649235 0.009533955 -0.0026916373 0.004132263
-0.0010602974 0.0013019204 -0.0027167667 -0.00066839234 0.00025904592 -0.0014980892 0.0019341726 -0.0013941845
0.0029293385 0.0024945831 -0.00675959 0.0030824996 -0.0042998684 -0.00503437 0.0013274789 0.0014842382
00000000: d5b8 3dbe 9143 92be 3e2a d6bd 167a 4dbe
00000010: ffda e03c 3edc 603e 0e0d ca3c 4af9 c7bc
00000020: 6c53 64be dd4f 8bbe 9e5b 723e f5dc 07be
00000030: c7db b83d 8528 a2bd e46c 9ebe 47c7 6cbe
00000040: d914 9cbe 9b1b b93d 590c 99bd 56dd 013d
00000050: eed4 19bd a065 473d 7e1d 6bbd 3853 a3bd
00000060: 54c5 9f3e ba75 873d fd82 cdbc 4d4f 77bd
00000070: 9dce 703e a3a2 7e3e 45ca 2cbc 17fa 673d
00000080: fb6e 853e cda0 f73c f7dc f0bd da43 ee3d
00000090: ae03 2d3e c65a ddbd 1831 9d3d ce02 97be
000000a0: fd3d f9bb 2646 1bbe 5841 e33b c946 153e
000000b0: 51b7 d7bd 927b cb3d 0f46 acbb ed5d 033b
000000c0: 59e7 3abd acb8 4fbe 9b60 43bc e92e d7bd
000000d0: 02e4 b0be d091 263e 3734 843e 5a40 9c3e
000000e0: bdaa 54be 8674 edbd 7cd2 79bc 84f6 16be
000000f0: 2ef6 173e 26d2 613e 9a80 98be 1ab9 c83c
00000100: 039f 7c3e 8612 08be 00c4 d0be add3 a5bd
00000110: 8560 813e 6959 2ebe 29c4 623d 3c09 073e
00000120: c5dd ecbd 796e 04bc 9810 e8bd 479a 0fbd
00000130: 94e0 683d 1e2b 8b3e 61a0 a63e dea1 7dbd
00000140: 9aa2 bd3e 66f9 233e b853 12be 43f9 24be
00000150: aa73 52bd 86e5 d63d b6db 58be d2d7 6d3c
00000160: 9ebd 25bd 85c5 1dbe 875f 75bd 1f41 8b3d
00000170: 855d 1b3d de94 8c3d c215 cbbd 9491 6f3d
00000180: 66fa ed3d 2c84 06be c7f0 85bd eb89 6c3c
00000190: 74fd 283e 26bc 263d 2252 c23d cfcd f13d
000001a0: e0e2 8dbd b1bb 783b d277 243d bfdf 803d
000001b0: 9313 e63d ac47 8fbc 9cf5 183d 8f52 15bd
000001c0: 7c61 12be 88f8 b63d e927 14be ec24 1a3d
000001d0: 9a4a 99bd 6575 b0bd e605 693d 820c 4f3e
000001e0: 4021 1a3e 697a cdbd 2ad0 8dbd d384 bc3d
000001f0: cec4 abbd e1b9 dcbd 0213 283e bd77 98be
00000200: 06cc af3c 58d4 f83c 5341 d6ba 174b a33c
00000210: 35c7 663a 0e8a dcbb da7c 8bbb 4881 c73c
00000220: ff95 85bb b610 a4bc 55b2 40bc baee 4dbb
00000230: 11b2 f7bb 5c19 5fbb 8745 823d fd84 5b3d
00000240: c02e 863c 64ed 5a3b 2e5c 27bc 1a8d 313c
00000250: b4ee a1bb c2d6 dabc 59e6 36bd 6d29 d7bc
00000260: 3160 3bbd 92fc ddbc 657e d93c a3e8 4ebc
00000270: 591c a9bc 3ef4 adbc ff92 8dbb 55f2 093c
00000280: b08f 8ebc 7ef2 0dbd 0941 14bd 5de4 0cbd
00000290: 2789 c5bc 0a91 5b3d 8a29 3fbc c399 a03c
000002a0: e1f8 3b3b 17d6 c1bb 7bf4 c63c 37c7 bbbc
000002b0: cd20 0d3c b990 823c 7d8f 10bc 6685 223b
000002c0: fd4d 3abb 3729 8d3c cd3e 843b a5a3 1dbc
000002d0: d4d8 df3c 7c72 67bc 5542 08bc 55ff 05bd
000002e0: 2c1d 353d 3285 0cbc 7cb7 38bb 06a1 913c
000002f0: 3145 6ebd d328 2bbc c464 c63c 6cb1 d73b
00000300: f044 ebba d549 f8b9 da42 c23a c0f1 f93a
00000310: 1653 473b c0a9 1d3a d7bc 333b c61b adbb
00000320: a1bd 8bbb 1836 8cbb 3bed e137 5c5a 653b
00000330: 4a78 173b 1b16 c1ba adbd 7f3b 6186 373b
00000340: af79 31bb e364 b6ba d7ab e33a eb26 81b9
00000350: 745a 96b9 e114 ac3b 2b6c 7abb 3cbd 69bb
00000360: 03bb eeba 8037 a8bb 217a 5e3b e0b7 673b
00000370: 38cf 83b9 179e 283b adae b2ba 7138 5d3b
00000380: fd0c 803b e8db 20bb 847f 49bb de1d 50bb
00000390: 7d6c 8fbb b679 bb3a 2400 1fbb dbf5 c7ba
000003a0: 02f2 403a c95e 7d3b a3bb 363b 1e9f 01bb
000003b0: ab53 07bb 4e34 1c3c 2e66 30bb ef67 873b
000003c0: adf9 8aba 33a5 aa3a c80b 32bb 0d37 2fba
000003d0: 8ed0 8739 885b c4ba 1084 fd3a 12bd b6ba
000003e0: 25fa 3f3b 297c 233b 8d7f ddbb c303 4a3b
000003f0: e9e5 8cbb 5bf7 a4bb cdfe ad3a c58a c23a

bias f4 [32]
0.09127618 0.13785416 -0.05441862 -0.0067973407 0.8621592 0.008212602 -0.0067644822 -0.030119158
0.024174122 0.008209073 0.076289475 -0.06251954 -0.023416031 0.0012191476 -0.05452165 -0.0273401
-0.07786647 -0.04684506 -0.078636296 -0.050206393 -0.04545525 0.008211036 -0.01025188 -0.020915804
-0.021932827 0.11076983 -0.03524364 -0.026496464 -0.001053128 -0.043779034 -0.08502982 -0.006797024
00000000: 02ef ba3d a429 0d3e 0fe6 5ebd 3abc debb
00000010: 77b6 5c3f 268e 063c 97a8 ddbb 74bc f6bc
00000020: cf08 c63c 597f 063c a83d 9c3d 3f0a 80bd
00000030: fad2 bfbc cecb 9f3a 1852 5fbd 58f8 dfbc
00000040: 7578 9fbd 9be0 3fbd 110c a1bd 38a5 4dbd
00000050: 492f 3abd 9587 063c 80f7 27bc 9f57 abbc
00000060: 79ac b3bc 4bdb e23d a35b 10bd 1d0f d9bc
00000070: 1d09 8aba a551 33bd 1d24 aebd 92b9 debb
